trwfs_tb/res/b4_pyr_best_flat.npy (npy, 516 bytes, 1 tensors)

array f4 [97]
0	0xbb87e06a	-0.0041466253
1	0x39a551d0	0.00031532208
2	0x3c829bfc	0.01594352
3	0x3d717da8	0.058957726
4	0xbbf1f5a0	-0.007384017
5	0x3cf84703	0.030307299
6	0x3d9653d2	0.07340206
7	0xb985dff8	-0.00025534607
8	0x3cf16cd5	0.02947084
9	0x3c286938	0.010278992
10	0x3d14f34a	0.03636483
11	0x3da2ac44	0.07943013
12	0x3d6efc32	0.05834598
13	0xb9aa2378	-0.00032451353
14	0xbbe5d97a	-0.0070144506
15	0xbcc694b3	-0.024240827
16	0x3d0126ae	0.03153103
17	0x3c0d8c10	0.0086393505
18	0x3ce0e14d	0.027451182
19	0x3dae18ed	0.08500848
20	0x3dbeb0b8	0.0931105
21	0x3cd78434	0.026308157
22	0xbafb23d4	-0.0019160458
23	0x3d06d7da	0.032920696
24	0xbc577092	-0.013149397
25	0xbb8d10d0	-0.0043049827
26	0xbc78b9b0	-0.01518099
27	0x3bab1ea8	0.0052221604
28	0xbb8ababf	-0.0042336877
29	0x3d46ade8	0.048505694
30	0x3d95d81a	0.07316609
31	0x3ddae1a6	0.1068757
32	0x3ca30dae	0.019903984
33	0x3ccfd614	0.025370635
34	0x3d7e3ee4	0.062071696
35	0xbd28287f	-0.041054245
36	0x3d09e856	0.03366884
37	0x3ca983b1	0.020692678
38	0xbb83ea8a	-0.004025762
39	0x3ba5954b	0.0050531975
40	0x3c713339	0.014721685
41	0x3d98a9bb	0.074542485
42	0x3d1101d4	0.035402134
43	0x3d849b11	0.06474889
44	0x3bcc4568	0.00623386
45	0x3c885958	0.016644165
46	0x3d02462e	0.03180521
47	0xbc971853	-0.018444216
48	0x3d11166f	0.035421785
49	0x3aefa7e2	0.0018284286
50	0x3d04900c	0.032363936
51	0x3c3e4d45	0.011615102
52	0x3d2e1fee	0.04251092
53	0x3d89861e	0.06715034
54	0xbca18b02	-0.019719604
55	0x3d5ac6d5	0.053412277
56	0xba1c2640	-0.00059566274
57	0x3b499afc	0.0030762544
58	0x3c503546	0.012708014
59	0xbbe8f562	-0.00710933
60	0x3cd28eb9	0.025702821
61	0x3ce0b4bd	0.027429933
62	0x3cbf1dc0	0.023329616
63	0x3d146a70	0.03623432
64	0xbc5091c5	-0.012730067
65	0x3d23b6b1	0.03996915
66	0x3c7324c6	0.01484031
67	0x3d4950df	0.04914939
68	0x3d89e8e0	0.067338705
69	0x3c289632	0.010289716
70	0x3cafff6f	0.021484105
71	0xbbd96350	-0.0066341534
72	0x3c838817	0.016056104
73	0x3cbc072c	0.022952639
74	0x3d94e86e	0.07270895
75	0x3d3e62c1	0.046480898
76	0x3d305724	0.043051854
77	0x3d82f383	0.063941024
78	0x3cda4a5e	0.02664679
79	0x3ccc28e6	0.024921846
80	0x3d0d1c02	0.03445054
81	0x3d024e43	0.031812917
82	0x3bc4aaca	0.006001805
83	0x3d3f3cf9	0.046689007
84	0x3da03590	0.07822716
85	0x3e045925	0.12924631
86	0x3d6c88d2	0.05774767
87	0x3d430c7b	0.047619324
88	0x3d19d460	0.037556052
89	0x3cb0507d	0.021522755
90	0x3d879f77	0.066222124
91	0x3ddd9d07	0.10820966
92	0x3df62c95	0.12020222
93	0x3db4078e	0.087905034
94	0xba727634	-0.0009249181
95	0x3d8cf9fc	0.06883618
96	0xbca50e81	-0.020148518
